1st Semester/Modular Arithmetics and Cryptography/Project/models/mnist_classifier.pth (torch, 254882 bytes, 6 tensors)

conv.weight f4 [8, 1, 7, 7]
000000 ae f0 54 bd 24 72 e7 3d 43 89 92 3d 7c 79 fb bd
       -0.051987343 0.113010675 0.07155087 -0.12279031
000010 4e 68 7f 3c 99 d7 29 be d8 7b fb 3c 2c d3 70 bd
       0.015588833 -0.1658615 0.030698702 -0.05879514
000020 f8 e6 00 be cd 3e b5 bc 12 83 0a be fd fd 10 be
       -0.12588108 -0.022124672 -0.13526562 -0.14159389
000030 56 38 31 be 5e 5d 2f be 17 6c 4c 3d 1d bb 5a 3d
       -0.17306647 -0.1712546 0.04990777 0.0534011
000040 d9 0e 57 3d e4 cb 39 be cb 12 fa bd c0 83 34 be
       0.052504394 -0.18144184 -0.12210616 -0.17628384
000050 9f 04 20 be 94 b0 6e bd 48 ce 96 3c e2 02 8b 3d
       -0.15626763 -0.058273867 0.01840891 0.06787659
000060 ad 92 a3 bc fe a5 3e be e5 15 c6 3d 81 f7 0e 3e
       -0.019967401 -0.18618008 0.09672145 0.13961603
000070 f7 ce 08 3e a7 4e 22 be 15 80 02 be ba bd e8 bd
       0.13360201 -0.15850316 -0.12744172 -0.113643125
000080 75 a5 b6 3d 15 a2 0a 3e e9 99 62 3d d7 c4 e3 3d
       0.08918277 0.13538392 0.05532256 0.111215286
000090 15 02 68 bc a3 49 c7 bd 44 54 57 3b e5 82 d2 bd
       -0.014160653 -0.09730842 0.0032856623 -0.102788724
0000a0 67 73 a2 3d ca fa ea 3d f5 d1 e3 3d 3f c8 3b be
       0.079321675 0.114736155 0.111240305 -0.18338107
0000b0 35 fa a4 bd cf ef 85 bd 0f 4c 31 3d ae 85 19 3e
       -0.08055536 -0.065398805 0.043285426 0.14992401
0000c0 b7 2a 22 3d 2e e6 94 bc 22 d5 44 be 59 4c d5 bc
       0.039591517 -0.018176164 -0.19221929 -0.026037382
0000d0 23 a6 97 bd 5e 83 bb 3d 34 de 59 3c 3a 50 4a 3d
       -0.07404735 0.09155916 0.013297606 0.049392916
0000e0 29 a5 a8 bd 8e 9c 23 3d 3d 2e 08 be ba 44 19 3d
       -0.08234627 0.039944224 -0.13298889 0.03741906
0000f0 84 c4 4e 3c c3 84 2b bd 94 ee 41 3e 73 03 00 bc
       0.012620095 -0.04187466 0.18938667 -0.007813322
000100 8a b6 81 bd c3 4e d6 bc 09 aa cc bd b2 f4 d9 bd
       -0.06333645 -0.026160603 -0.09993369 -0.10642375
000110 6a c8 d6 3d 55 ba 25 3e 33 e2 ae bd 20 0f 84 3c
       0.10487445 0.16184361 -0.08539238 0.016120493
000120 dc 3f 0b be d3 f7 e8 bd 57 3d 33 be 7d 7e 62 3d
       -0.13598579 -0.11375394 -0.17503868 0.05529641
000130 06 4a cf bd fa 5c 21 bd b9 dc 11 3d b9 10 02 be
       -0.10121541 -0.03939531 0.03561089 -0.12701692
000140 a4 a7 15 be 34 60 71 3d b5 65 74 bd 32 74 0d be
       -0.14614731 0.058929637 -0.059667308 -0.13813856
000150 2c 98 ed bb 6d 1b 67 3b 67 9e ca bd dd 75 e3 bd
       -0.0072508063 0.003526415 -0.09893494 -0.11106465
000160 cb bf de bd bc aa 11 bd d0 73 77 bd 3a 84 f1 bd
       -0.10876425 -0.035563216 -0.06041318 -0.11792798
000170 53 a0 b0 3d 78 b3 e0 3c 8d 5f b4 3d c0 cb 38 be
       0.086243294 0.027429327 0.08807287 -0.18046474
000180 29 ab 58 bc 45 be 8e 3d 10 3f 24 be 30 fd 95 3d
       -0.0132244015 0.06969885 -0.16039681 0.07323682
000190 68 53 fa bd 0b 63 69 3d 73 b3 9a bd 4e 3e 5d bb
       -0.1222294 0.05697922 -0.075537585 -0.003375906
0001a0 4c 78 13 be 04 62 14 bd a5 b3 83 bd e2 0b c5 3d
       -0.14401358 -0.036226287 -0.06430749 0.09621407
0001b0 f7 d6 fd bd 8a 14 42 3d 8b 61 15 be f7 3e 61 bd
       -0.12394517 0.04738287 -0.14587991 -0.05499169
0001c0 99 f8 09 be 13 ba 8e 3d f1 7a dc bc 6c 2f f6 3c
       -0.13473739 0.069690846 -0.026914092 0.03005191
0001d0 48 9d 8d bb ca c9 14 bd 1c df 70 3b 6e e6 df bd
       -0.004321728 -0.036325254 0.0036754077 -0.10932623
0001e0 18 8c bf bd e6 14 ac bd 1d e2 06 be 9c 20 5f 3d
       -0.09352893 -0.084024236 -0.13172193 0.054474458
0001f0 53 2b 1c be ec 11 e9 bb 17 b2 c6 bc 48 5b 90 bd
       -0.15250902 -0.007112732 -0.024254842 -0.070486605
000200 07 8c 6e bd 21 41 d4 ba 2e 3a bd bd 14 4a 10 be
       -0.05823901 -0.0016193726 -0.092396125 -0.14090759
000210 e5 80 a4 3d 8a 05 60 bd 23 8f 0e be e4 3e 0a be
       0.08032397 -0.054692782 -0.1392179 -0.13500553
000220 09 d9 55 3d 98 ca 32 be ec a6 16 bd 0c c2 e8 3d
       0.052208934 -0.17460096 -0.036780283 0.113651365
000230 d2 88 0b be 16 8f 98 3d 41 66 68 3d 77 8a 20 3d
       -0.13626412 0.074491665 0.056738142 0.03919455
000240 94 cc 3a 3d c5 dd c5 bd 9e c4 ad 3c 25 49 ff bd
       0.045605257 -0.0966144 0.021211918 -0.12465123
000250 3c 73 d5 3d 26 e4 88 bc 26 5b 58 bc 53 40 a3 3d
       0.1042237 -0.016710352 -0.013205325 0.07971253
000260 94 eb e4 bd 49 3d 2e be 48 e3 23 be 48 d0 be bc
       -0.111777455 -0.17015566 -0.1600467 -0.023292676
000270 bd 0a 53 3c d7 68 a6 bc 25 72 01 be 17 9e fc bc
       0.012880978 -0.020313663 -0.12641199 -0.030837102
000280 f6 a0 42 be 55 e3 98 bd 79 fe af bd 3f 0f 13 be
       -0.19006714 -0.07465235 -0.08593459 -0.14361285
000290 1e 37 52 be 26 06 18 be 02 fe d4 bd 42 f8 70 bd
       -0.20528838 -0.14846095 -0.10400011 -0.058830507
0002a0 be cf 82 bd 78 59 63 bc 74 49 36 be 46 dd 1b bd
       -0.0638728 -0.0138763115 -0.17801458 -0.03805282
0002b0 ed 6a 56 be b1 57 e3 b8 01 cf 0e be 39 ed d8 3d
       -0.20939226 -0.00010840537 -0.13946153 0.10592122
0002c0 01 cb 87 3d 0b 72 4b 3d 2a 6e 28 3e 58 0f 69 3d
       0.06630517 0.049669307 0.16448274 0.0568994
0002d0 f3 69 32 be d5 b2 39 3d 7b 89 f9 3d 32 b5 22 3e
       -0.17423229 0.045336563 0.121844254 0.15889433
0002e0 54 18 e2 3d 1c 63 75 3e 63 20 25 3e 11 54 f8 bc
       0.110397965 0.23963588 0.16125636 -0.030313523
0002f0 25 7f 39 be 8e 8b 28 3e 1d 0d 2b bd fb 8e 29 3e
       -0.18114908 0.16459486 -0.041760553 0.16558449
000300 6b e7 f1 3d 6d bc 1b 3e af 20 50 3d f8 bb 1b be
       0.118117176 0.15208597 0.05081242 -0.15208423
000310 0c 47 17 bd 6b 2e 09 bc e7 b1 e2 bd 62 8c f3 3d
       -0.03693299 -0.008372883 -0.110690884 0.1189201
000320 76 7b 45 bd 1f a6 58 bd a7 a5 1a bd 7d 66 d5 3d
       -0.048213445 -0.0528928 -0.037755635 0.10419939
000330 b9 c0 01 3d f7 18 c1 3d 01 da d9 3d 44 5e c3 3c
       0.031677935 0.0942859 0.10637284 0.02384866
000340 8e 8e 0c 3e cf dd b7 3d e4 b4 de 3d 1f 3b 33 3e
       0.13726255 0.089778535 0.10874346 0.17503022
000350 2f 1f b5 3d 9e a9 17 3e de 39 de 3d 32 f9 05 bd
       0.088438384 0.14810798 0.10850881 -0.032708354
000360 cd 95 dc 3c 07 8c 52 bd 59 d6 0d 3e 92 6e 8d 3d
       0.0269269 -0.05140307 0.13851298 0.06905855
000370 2c c7 90 bd bc 37 23 3e 8b 4a ec 3d 5c 28 19 3d
       -0.07069239 0.1593923 0.115376554 0.037392005
000380 7a 20 ac bd 7b 9c 3d bd 0b 84 de bd 0c 75 8e bd
       -0.08404632 -0.04629181 -0.10865029 -0.06955919
000390 cf fd 2b 3e fc 18 e4 3c 9e da 22 3e 4c 56 d2 3d
       0.16796039 0.027843945 0.15903708 0.10270366
0003a0 a1 f0 27 3e 56 9d 9c 3d 57 fb 5c bd c5 19 26 3e
       0.16400386 0.07647197 -0.053950634 0.16220768
0003b0 43 c0 b9 bd e5 76 94 3d b3 71 95 3d 81 f2 03 3e
       -0.09069874 0.0724924 0.07297077 0.12885477
0003c0 9e 94 94 bd fd 2f 9f 3d 7a 9b 21 3d 84 88 a5 bd
       -0.07254909 0.07772825 0.039454915 -0.08082679
0003d0 45 d1 58 3d 52 f4 c9 bc 42 04 cd 3d f0 a0 1c be
       0.05293395 -0.024652634 0.10010578 -0.15295768
0003e0 d3 81 2e 3b 69 a9 de 3d 2d 96 01 be 8d 9a cf 3d
       0.0026627674 0.10872156 -0.12654944 0.101369
0003f0 04 55 0c bd 7d a0 db 3d e8 c5 1a bd da 2f b0 3d
       -0.034260765 0.1072397 -0.037786394 0.08602877

conv.bias f4 [8]
000000 fa 63 f2 bd 34 73 8e bd dd eb 2a be 70 62 18 3b
       -0.11835475 -0.06955567 -0.16691537 0.0023252033
000010 a4 d5 82 bd eb b3 08 3d 9b 8c 13 be 1e 49 47 3e
       -0.06388405 0.03337471 -0.14409105 0.19461486

fc1.weight f4 [64, 968]
000000 16 fd 19 3d 8d 13 74 bc 93 72 95 3c c9 5c 45 3b
       0.037594877 -0.014897239 0.01824311 0.0030115119
000010 1a 8c 8e bc 0c 17 30 bd c4 a8 61 bd f1 38 0d bd
       -0.01740079 -0.04299073 -0.055092588 -0.03447813
000020 84 5c 38 bd f7 f0 56 3b 70 67 a6 bc ca cc 0f 3d
       -0.045010105 0.0032797435 -0.020312995 0.03510741
000030 ba 5b 93 3c 94 87 3d 3d 49 5d 2b 3d 09 07 94 3c
       0.017988075 0.046271876 0.04183701 0.01806976
000040 1f 6e 35 3c 20 fe d7 bc c5 74 f9 bc 12 f3 0f bd
       0.011073618 -0.026366293 -0.030451188 -0.03514392
000050 bf 5d 16 bc 01 5c aa 3c 30 5c 61 bc 89 4e 3b 3c
       -0.009177624 0.020795824 -0.013754889 0.011432298
000060 7c fe 0c 3d 6f 83 e5 3c c1 39 46 3d ed c1 2d 3d
       0.034422383 0.028016774 0.048394922 0.04242127
000070 fd aa 65 bb e2 17 04 bc 20 02 15 bd 93 26 de bc
       -0.0035044544 -0.008062335 -0.03637898 -0.027118003
000080 66 3d 1a 3d d0 05 ea 3c b4 12 87 3d df 28 6d 3d
       0.03765621 0.028567225 0.06595364 0.057900306
000090 64 15 d7 3b 7d 76 59 3c 91 12 91 3c 28 54 03 bd
       0.0065638293 0.013272879 0.017709048 -0.03206268
0000a0 75 78 c9 bb d8 1c 73 bc 52 07 23 3c a8 63 ed 3b
       -0.006148393 -0.01483842 0.009950476 0.007244546
0000b0 54 41 8e 3d 42 c0 82 3c 07 82 2f 3d b3 1e 98 3c
       0.06946054 0.015960816 0.042848613 0.018569326
0000c0 92 50 01 bd 49 10 75 3c 8a 12 b0 bc 88 be ad bc
       -0.03157098 0.014957496 -0.021493215 -0.021209016
0000d0 98 e0 98 bc e2 ed f5 3c 1f 8a c6 3c 4b a5 2b 3c
       -0.018661782 0.030020658 0.024235783 0.010476421
0000e0 ba 75 54 3d f4 5c 24 3c e0 8c c6 3b c6 eb 06 3a
       0.051870085 0.010031927 0.006059274 0.00051468273
0000f0 bb 36 90 bc 32 08 9b 3c 85 ae 32 3c b2 4b 13 3d
       -0.017604223 0.018924806 0.0109058665 0.03596086
000100 25 78 59 3d cb 0c 45 3d a7 01 49 bc 10 d1 b6 3c
       0.053093094 0.048107903 -0.01226846 0.022316486
000110 11 d0 c2 3c 71 20 6a 3c b9 f4 3c 3d d5 29 02 bc
       0.023780854 0.014289961 0.046131823 -0.007944544
000120 a2 92 0a bd 90 a8 a8 3c 49 ca 4f 3d ad 1b 81 3d
       -0.033831246 0.02058819 0.050730024 0.06304107
000130 5a 44 35 bc 2d 69 2d bc 32 1e 99 bc b3 8e 8f 3b
       -0.01106366 -0.010584158 -0.018691156 0.0043810247
000140 07 b4 b5 3c 4a 4a a2 3b 02 29 d9 bb d6 e4 a9 bc
       0.02218057 0.0049527036 -0.006627203 -0.020739
000150 96 1c 7b 3d 3b 87 ad 3c 70 02 dc 3c 78 47 5c bc
       0.06130656 0.021182647 0.026856631 -0.013444774
000160 95 b3 00 3c 89 22 b8 3c ba 33 eb bb 6f 01 af 3b
       0.007855316 0.022477405 -0.007177797 0.005340747
000170 08 63 22 3d 29 aa 63 3c d1 a6 b2 3b 7a 2f 25 3d
       0.039645225 0.01389555 0.005452015 0.04032848
000180 45 6e 0b 3d ac 4b 00 3c ce 2a ee 3b f2 11 d0 bb
       0.034040708 0.007830542 0.0072682863 -0.0063497955
000190 f0 51 d9 3c 84 60 0a 3c f1 0c 73 3c 7f 1a 9d bb
       0.026528329 0.008445863 0.014834628 -0.0047944183
0001a0 8a 1b df bc 38 bc b2 3a a3 bd 5e bc 8c aa 09 bd
       -0.027234811 0.0013636416 -0.013595018 -0.03360991
0001b0 63 ab fe bc ec c1 ff bc 93 fb 69 3c b9 84 2f 3b
       -0.031087583 -0.031220399 0.014281171 0.002678199
0001c0 cf 6b 74 3c 95 7c 59 3c 3c 3a 4b 3d 02 ac 3c 3c
       0.014918282 0.013274332 0.049616084 0.011515619
0001d0 c7 51 08 3d 11 15 23 3d e9 41 4c 3c 38 53 04 bc
       0.033281114 0.039815012 0.012466886 -0.0080764815
0001e0 9f e9 63 3d bc aa f4 bb e7 b1 99 3c ed bb 6d bb
       0.05564272 -0.007466642 0.018761588 -0.0036275343
0001f0 98 af d8 3c 40 3b 80 3d 3b 7f 5e 3c 91 db 89 3c
       0.026450917 0.06261301 0.013580139 0.01682833
000200 f3 2a 20 3d 9f 25 a0 3b e4 58 0f bd b7 60 80 bd
       0.03910346 0.0048872973 -0.034996882 -0.06268447
000210 a3 da 8a 3d 7f 39 1e 3d 8e 17 25 3d fd 35 59 3d
       0.06779983 0.03862905 0.040305667 0.053030003
000220 87 c2 a8 bb ff 88 4c 3d d6 ed dd 3c 51 ca 12 3d
       -0.0051501426 0.049935337 0.027090948 0.035837475
000230 b2 1a 1f 3d ef 7a 93 bc f8 ff ff bc a2 98 77 3d
       0.038843818 -0.018002955 -0.031249985 0.060448296
000240 22 fb 4e 3c 5d b4 60 bb 48 5e d5 3c 99 84 cf 3c
       0.012633117 -0.0034287192 0.026045933 0.025331782
000250 0f 5a ed 3c c0 f7 51 bc e4 13 58 3d 23 fb 50 3c
       0.028973607 -0.012815416 0.052753344 0.012755188
000260 ce 04 2e 3c 51 a5 bf bc 83 24 8d bb 95 ff 0d 3d
       0.010621263 -0.023394259 -0.004307331 0.03466757
000270 3c c3 c8 bc 7f 9b 0c bd b0 15 15 bc 74 9e 03 3c
       -0.024507158 -0.03432798 -0.009099409 0.008033384
000280 6c ad bf 3c 79 2c 2d 3d db a2 f3 3c 58 a5 c3 bb
       0.023398124 0.04227874 0.029740741 -0.0059706382
000290 46 d4 f7 bb cf c4 f8 3c 06 4f 26 3c 50 e7 49 3c
       -0.0075631468 0.030367283 0.010150677 0.012323216
0002a0 2c a2 4b bd 72 0e 51 bc f4 98 c7 bc 5d 5f 5d 3c
       -0.049715206 -0.012759792 -0.024364926 0.013511506
0002b0 0d 20 2d 3c 20 4e 8f 3c 15 3e 4b 3d 43 a1 bc 3a
       0.0105667235 0.017493308 0.049619753 0.0014391321
0002c0 e6 c7 73 3d 77 ed 4c bb 2a 2f 89 bc ec bc a2 bc
       0.05951681 -0.003126947 -0.016746122 -0.019865476
0002d0 0c 5e 0b bd f7 a0 0c bd d7 f0 85 3b c8 1d 31 bc
       -0.034025237 -0.034333196 0.0040875482 -0.010810323
0002e0 1b 59 b5 3c 18 f6 12 3d 0c 3e 8c 3d 36 d1 04 3d
       0.022137215 0.035879225 0.06847772 0.03242608
0002f0 9c ec 22 3a 08 0b 0e bc 98 da 97 3c 5c 49 c3 bc
       0.0006215067 -0.008669622 0.01853685 -0.023838691
000300 55 f0 06 bd d4 94 c7 bc 3e e1 b7 3a dd 22 11 3d
       -0.032944042 -0.024362959 0.0014028919 0.03543364
000310 3d 80 87 3c 34 18 d0 b9 37 82 c3 bc 44 eb 05 bc
       0.016540641 -0.00039690884 -0.023865802 -0.0081737675
000320 7a 1a f5 3c 1d 68 ea bb d6 46 5a 3c 09 45 4e 3c
       0.029919852 -0.0071535246 0.013322553 0.012589701
000330 c2 38 57 3c 7a 93 80 bb 57 cf 08 3d 5f 3b de 3c
       0.013136091 -0.0039238306 0.03340086 0.02712792
000340 b5 d5 61 bc 05 cd 3a 3b 94 86 ea bc 82 c3 e9 3b
       -0.013783862 0.0028503549 -0.028628625 0.007133902
000350 19 6a 4a bc 39 fc 01 3d e8 e5 58 3c 03 9c f5 bb
       -0.012354397 0.03173468 0.013238408 -0.0074954047
000360 d1 9b 8e bc 62 55 ce 3c 68 a5 b7 3c ac 22 ca bc
       -0.017408283 0.025187198 0.022417739 -0.024674736
000370 ea 28 0f bd 69 10 0f 3a 66 12 5e 3d 80 9a 5f 3d
       -0.034951128 0.00054574624 0.054216765 0.054590702
000380 23 03 cd 3c 5e 5f 3e 3d e1 98 d7 3c b8 57 70 bc
       0.02502591 0.046477668 0.026318016 -0.014669351
000390 35 cc 74 3c cc 79 b6 3c c9 74 c9 3c c0 04 fe bb
       0.014941265 0.022274874 0.02459182 -0.007752031
0003a0 e0 2e 5f bd 29 b5 93 3c e5 65 99 3b 74 b6 86 3c
       -0.054488063 0.01803072 0.004681336 0.016444422
0003b0 2f d3 7b 3c 76 97 18 3d a2 44 a7 3c 44 da 1f bb
       0.015370174 0.03725382 0.020418469 -0.002439157
0003c0 b8 1c 0b 3a bd 93 49 3c 77 ff 4f 3a c3 b9 9d bc
       0.00053067086 0.01230329 0.00079344906 -0.019253617
0003d0 64 8e c7 3c e5 83 8f 3d 67 0f 00 3d 23 55 c9 3c
       0.02435989 0.07007579 0.03126469 0.02457673
0003e0 89 54 ec 3c 2a e0 6c bc f7 f2 5a bc ad 74 50 bc
       0.028848903 -0.014457742 -0.013363591 -0.01272313
0003f0 83 11 6a bd 84 f0 37 3d b9 1b c9 3c a1 ba b2 bb
       -0.057145607 0.044907108 0.024549352 -0.005454377

fc1.bias f4 [64]
000000 24 68 33 bc 3a 42 c9 3c 80 e5 0d bb eb 27 22 bc
       -0.010950122 0.024567712 -0.0021651685 -0.0098972125
000010 03 d4 6c bc 26 ae 1c bd 0e 0b 23 bd 64 2e 42 3d
       -0.014454844 -0.03825202 -0.039805464 0.047407523
000020 c5 c7 70 3c 3e c9 89 bc f0 7a 50 bd dc 01 4e 3d
       0.014696066 -0.016819593 -0.050898492 0.050294742
000030 ab f2 f8 3a 24 0d d2 bc 01 47 3f bc d1 5d 8a 3d
       0.0018993219 -0.025641032 -0.0116746435 0.06756175
000040 31 bb dd bc 8d 03 3c bd 57 07 4c 3d 5e 8e 35 bd
       -0.027066799 -0.045901824 0.049811687 -0.044325225
000050 d2 5c c0 bc 09 46 e0 bc 35 74 14 bd 9e d3 53 3d
       -0.02348176 -0.027377145 -0.036243636 0.051715486
000060 ff 27 3c 3d e7 bd 46 3d a7 15 79 3b 50 53 29 bd
       0.04593658 0.04852095 0.003800729 -0.04133922
000070 3e db 0b 3d f3 47 86 3d a9 af 59 3d 56 48 43 bd
       0.034144633 0.06556692 0.05314604 -0.047676407
000080 75 44 46 bd 9f c0 86 3d 78 52 bf 3c 21 ce cf 3a
       -0.04840513 0.06579708 0.023354754 0.0015854278
000090 44 27 68 bd 6e 8c e9 bc f3 13 a4 3c 96 c3 b1 3c
       -0.05667807 -0.028509345 0.020029044 0.021699708
0000a0 e9 f7 4c 3d a2 f0 96 3c a5 6a ca ba ab ee 35 3d
       0.050041113 0.01842529 -0.001544316 0.044417065
0000b0 1f 78 4f 3d ba 42 9c 3c a7 8f 0f bd ad 99 0a 3d
       0.050651666 0.019074786 -0.035049107 0.033837963
0000c0 16 94 d0 3b c0 63 32 3d 77 74 c2 bc fc 24 ca bc
       0.0063653095 0.04355216 -0.023737175 -0.024675839
0000d0 fd 8a d3 3c 93 09 79 3c 7a 4b 36 bb 28 1f 9e bc
       0.02582311 0.015200037 -0.0027815984 -0.019301966
0000e0 4e db a4 3c b4 0e 0b bc 3b 32 55 bc 2c 3b 5d bc
       0.020124104 -0.008487392 -0.013012464 -0.013502877
0000f0 85 e1 27 3d 90 5a e0 bc 0e 54 33 3c 47 90 8e 3c
       0.040986557 -0.027386934 0.010945333 0.017402781

fc2.weight f4 [10, 64]
000000 62 a4 a2 3d 53 13 de bd 8c c1 11 3e ec de 10 3c
       0.0794151 -0.108435296 0.14233989 0.008842211
000010 53 89 c0 bd 3d af 81 3d ff fd c6 bd 62 cc a3 3d
       -0.094011925 0.06332252 -0.09716415 0.07997967
000020 44 17 4e bd 78 01 48 bd e8 1d 0d 3d 18 73 25 bd
       -0.050315157 -0.048829526 0.03445235 -0.040392965
000030 79 ee eb 3d 2a 94 b2 bd 7e 3c 9a bb e8 55 4e bd
       0.115200944 -0.08719666 -0.0047069183 -0.050374895
000040 b0 01 34 3d bd 61 39 bd b2 14 1f 3d 55 8d 1f be
       0.04394692 -0.045259226 0.038838096 -0.15581258
000050 ef 15 43 3c 5c c6 5f 3d c7 11 49 3d 9e 52 ea bd
       0.011907085 0.05463253 0.04908922 -0.11441539
000060 a9 38 f7 3d 2c ca 8e bd cb 02 cc 3d ae 88 d2 bd
       0.12071354 -0.06972155 0.0996147 -0.10279976
000070 4a d9 02 3e b2 cb b9 bd b8 12 a5 3b c4 31 48 3d
       0.12778202 -0.09072055 0.005037632 0.048875585
000080 1b 6c 00 be 40 7d 75 3d bc bb d2 bc 68 9b f5 3d
       -0.12541239 0.0599339 -0.025724284 0.11992532
000090 27 4f 14 3d 56 6a a6 3d 25 7e 2d bd 9c ad 45 3d
       0.036208298 0.08125751 -0.04235663 0.04826127
0000a0 43 f6 0e 3d 26 2b 60 bd ed 62 04 3d 50 00 f4 bb
       0.034902822 -0.05472865 0.032320905 -0.0074463263
0000b0 da 40 ac bd 90 f6 0d 3c 18 d1 80 3d 54 30 ce bc
       -0.08410807 0.008664742 0.062898815 -0.025169529
0000c0 7c de 3f bd 6b 2a 80 bd 47 f6 a2 bd c0 05 02 bd
       -0.046843037 -0.062580906 -0.0795713 -0.031743765
0000d0 77 4c b7 bd be 78 ac 3d a0 92 79 3d 38 6e 2b 3d
       -0.089501314 0.08421467 0.060930848 0.04185316
0000e0 4e 8c d2 3d ec 26 7a bc 80 78 be 3d ce 41 c5 bd
       0.10280667 -0.015268069 0.09300327 -0.09631692
0000f0 e1 75 7c bd e3 fa b2 bd 2e 37 7e 3d ba 12 e3 bd
       -0.061635856 -0.08739259 0.062064342 -0.11087556
000100 b4 2a fa bd 52 64 53 bc f7 9b 46 3d 41 e3 20 3c
       -0.12215176 -0.012902336 0.048488583 0.009819807
000110 bd 06 04 3e fb 35 d9 bd e0 8b 56 3c 6d d6 41 3d
       0.12893195 -0.10605999 0.013094872 0.047323633
000120 21 7f 23 3d f9 d3 88 bd 7c 83 1b 3e c0 34 8a 3d
       0.03991616 -0.066810556 0.15186876 0.067483425
000130 fc b7 8f bd 8e cc 10 be 63 00 23 3c 5d de e9 3d
       -0.07017514 -0.14140531 0.009948823 0.114193656
000140 1f 1e 3c bd 2b 43 47 bd 41 7f e6 3d b7 48 e5 bb
       -0.045927163 -0.04864804 0.112547405 -0.0069971937
000150 5d f7 e9 3d 70 7b d6 bd 69 48 c0 bd 4b 6f 1b bd
       0.11424134 -0.104727626 -0.09388811 -0.037947934
000160 3e 66 d2 3d fc 9e af 3d 92 cb af bd f1 86 b0 3d
       0.102734074 0.08575246 -0.0858375 0.08619488
000170 f6 40 f1 bd 4c 94 13 3e 75 ff d2 3d 29 c3 8f bc
       -0.117799684 0.1441204 0.10302631 -0.017549114
000180 73 07 1a be 14 6d 13 3e dc 2f ab 3c 0f d0 d7 bd
       -0.15041904 0.14397079 0.020896845 -0.10537731
000190 c7 3c b5 3d e2 ae 1a be 91 ed ed 3d cb c3 12 be
       0.08849483 -0.15105775 0.11617578 -0.14332502
0001a0 37 bd 10 3e 87 26 04 3c 8d a4 fd 3c 2e cb 50 3d
       0.1413468 0.008065826 0.030962253 0.050975017
0001b0 ba 77 7f 3d 5f d4 b6 bd d6 eb 0e 3e 17 09 18 be
       0.06237004 -0.08927225 0.13957152 -0.14847218
0001c0 14 06 d4 bd bf 2e 9a 3d 4d 69 5e bd 64 76 88 3d
       -0.10352722 0.07528447 -0.05429964 0.06663206
0001d0 94 ab f0 bd 2b 56 8b bd 95 09 c8 bd 7e 78 16 bc
       -0.11751476 -0.068035446 -0.097674526 -0.009184001
0001e0 49 39 e5 bd 8f f0 f4 bd e8 92 2a 3d cd 10 82 bd
       -0.11192567 -0.119599454 0.041644007 -0.06350861
0001f0 5e 1f ea bd 98 d1 df 3a cd e3 83 bd f0 fa 2f bd
       -0.11431764 0.0017076014 -0.06439934 -0.042963922
000200 5c 26 d5 3d 5c ae f5 3d 8d 38 68 3c 8f 2a 0b 3e
       0.10407707 0.11996147 0.014173639 0.13590454
000210 37 eb 5f bd 1b 0c 97 3d 69 e9 b3 bd fe ee 13 bd
       -0.054667678 0.07375356 -0.08784754 -0.036116593
000220 b1 54 40 bd 10 28 cb 3d 9a d7 e7 bc 3b 13 9a bd
       -0.046955768 0.09919751 -0.028301049 -0.07523199
000230 05 e1 0c 3d 4b 27 7a 3b ea fe 94 bd 52 2c 09 3e
       0.034394283 0.0038170393 -0.072751835 0.13395813
000240 03 83 8b bd d7 50 09 be 17 1b 6b 3d fa 98 da 3c
       -0.06812098 -0.13409744 0.05739888 0.026684273
000250 29 b4 09 be 8e d1 fb 3d 89 64 b2 3d 4c 3a 71 bd
       -0.13447632 0.12295829 0.08710582 -0.058893487
000260 a5 6f a9 bd 40 01 f7 bd 5f 78 e3 3d 34 53 10 3d
       -0.08273248 -0.12060785 0.11106943 0.0352356
000270 7a 1c d8 bc 31 90 c9 bd 23 12 11 be 94 13 59 bd
       -0.026380766 -0.098419555 -0.14167075 -0.052997187
000280 b8 f5 b5 3c e4 8d 99 3d 4d 56 cf 3d 4b 16 be 3d
       0.022211894 0.074977666 0.101238824 0.09281596
000290 ff 6b 1c 3e bf 11 47 bd c1 40 85 3d 8d 24 ac bb
       0.15275572 -0.04860091 0.065064915 -0.0052533806
0002a0 b0 73 f7 3d 3d 88 14 bd e9 ac a5 bd 03 cc b9 3d
       0.120826125 -0.03626274 -0.080896206 0.09072115
0002b0 4d 2e ce 3c 46 af a8 bd fb 33 26 be 3f 3b f7 ba
       0.025168562 -0.08236556 -0.16230766 -0.0018862261
0002c0 01 6d 9b 3b e8 83 bb 3d 1e c5 f5 3d 91 0c 84 bd
       0.004743219 0.091560185 0.12000488 -0.06447709
0002d0 60 72 ff 3b 1d 32 01 be f2 f8 72 3d a0 4e 07 be
       0.007795617 -0.12616773 0.059319444 -0.13213587
0002e0 72 46 3d bd ef b2 09 bd 41 b6 be bd 25 bc 9b 3d
       -0.04620976 -0.03361791 -0.09312106 0.07604245
0002f0 90 fb cc bd 8b 02 a8 3d 5d cc 54 bd ff fe c0 bd
       -0.10008919 0.0820361 -0.05195271 -0.09423637
000300 27 89 a9 bd 21 18 51 bd 16 15 a5 bd aa 3d 8f 3c
       -0.08278113 -0.0510484 -0.080606624 0.017485458
000310 80 f8 af bb 91 8c 20 bb 09 6e 99 bd 60 8e 0b 3d
       -0.0053701997 -0.0024497847 -0.07491691 0.034071326
000320 86 12 b7 3b 37 d8 15 3e a8 0b 18 3d 3f 9a cb 3d
       0.005586925 0.1463326 0.03712049 0.099415295
000330 d0 9a 07 be b8 02 85 3c d7 4e 9c 3b 13 8b 16 3d
       -0.1324265 0.016236648 0.0047701406 0.036753725
000340 1c ed 87 3d 79 de fd bd 66 07 12 be b8 3b 87 3d
       0.06637022 -0.12395949 -0.14260635 0.06603187
000350 a5 3b 00 3e 37 81 89 3d 1a 98 ae bd 1e b4 67 bd
       0.12522753 0.06714099 -0.08525105 -0.056568258
000360 c5 6c 18 bd 49 ed b6 3c 60 d0 bf 3d 90 17 cf 3d
       -0.037213106 0.022329943 0.09365916 0.10111916
000370 df 3c 2b 3d 19 f0 e0 bc a4 99 63 bd 9a 77 cb bd
       0.041806098 -0.027458237 -0.055566445 -0.099349216
000380 f2 fd 93 bd 3c 9f 2b bc 2d 39 ca 3d 75 a3 2e 3d
       -0.072261706 -0.010474976 0.09874187 0.042636354
000390 a3 25 0b 3d d2 ff db 3d d5 5d 27 3c 0f c5 8f bd
       0.03397144 0.10742153 0.010215242 -0.07020008
0003a0 46 30 92 bd ac 39 13 bd 0c f0 ab bd bf eb 09 3e
       -0.07138114 -0.035943672 -0.08395395 0.13468836
0003b0 a6 3d ce bd 56 33 b1 3d eb 34 0d be 61 9a 08 3d
       -0.10070352 0.0865237 -0.13789718 0.033350352
0003c0 d2 21 32 3d 05 4f 7f 3c 27 87 41 bd 55 9c 6f bd
       0.043489285 0.015582805 -0.047248032 -0.0584987
0003d0 46 b4 b5 bc ad c0 a8 3d 64 7d f2 3d d1 8a 91 3d
       -0.022180688 0.08239875 0.118403226 0.07106555
0003e0 e3 a8 0e be c5 81 5c 3d 9c a2 af bd 6b 19 ca 3c
       -0.13931613 0.053834695 -0.08575937 0.024670323
0003f0 40 f9 bd bc d0 3c 49 bc b9 ea 43 3d 1d ce 03 3c
       -0.02319014 -0.012282565 0.04783127 0.008044747

fc2.bias f4 [10]
000000 31 ce 26 bd 0d 4c 8d bd 2c 31 06 be 5c f2 d7 bc
       -0.040723983 -0.06899271 -0.13104695 -0.026360683
000010 3a fb d9 3d e6 d8 b5 3d dd 38 a1 bc 7f 42 7d 3d
       0.10643621 0.08879261 -0.019680435 0.061830994
000020 ba 1e 7d 3c 3a cb cf bd
       0.01544922 -0.10146184
